artifacts/best.pt (torch, 74543 bytes, 24 tensors)

features.0.weight f4 [32, 2, 27]
0	0x3db94438	0.09046215
1	0x3dc89e09	0.09795768
2	0xbd371c8d	-0.044704963
3	0x3decd664	0.11564329
4	0xbd1aba29	-0.037775192
5	0x3c949847	0.018139018
6	0xbd992ffc	-0.074798554
7	0x3d983f5f	0.07433962
8	0x3df4695c	0.11934158
9	0xbdc88ff4	-0.09793082
10	0x3df60576	0.1201276
11	0x3cdf57eb	0.027263602
12	0x3dd2c242	0.10290958
13	0x3cab8518	0.020937487
14	0x3d899830	0.067184806
15	0xbc97c03a	-0.018524278
16	0x3dda01ba	0.106448606
17	0x3cb2d361	0.021829309
18	0xbd812821	-0.06306482
19	0x3d0b8612	0.034063406
20	0xbd8369a0	-0.06416631
21	0xbc7c2d79	-0.015391701
22	0xbd5732a7	-0.05253854
23	0x3dc15c12	0.09441389
24	0xbdd95fb7	-0.10613959
25	0xbd85f298	-0.06540412
26	0xbd30b88a	-0.04314474
27	0xbd99a267	-0.07501679
28	0x3cc5d41b	0.024148991
29	0xbdeda3e0	-0.11603522
30	0x3e0d7a61	0.13816215
31	0xbde664f9	-0.11249728
32	0x3dd4c8bd	0.1038985
33	0x3cdfa232	0.02729902
34	0xbd16311a	-0.03666792
35	0x3db3d9c3	0.08781769
36	0x3cb6e043	0.022323733
37	0x3de5fb73	0.11229601
38	0x3c7321d7	0.014839611
39	0xbd380e59	-0.044935558
40	0x3d1798bc	0.037010893
41	0xbd0428c4	-0.03226544
42	0x3d77c4b4	0.060490325
43	0x3df20143	0.11816647
44	0x3d9a8272	0.07544412
45	0xbd62ef9d	-0.055404294
46	0x3dafc5ee	0.08582674
47	0x3ca8a5a4	0.020586796
48	0x3d706495	0.058689672
49	0xbdbb0489	-0.091317244
50	0xbe07ca7e	-0.13260838
51	0xbd35b150	-0.04435855
52	0xbdc4a5c7	-0.09601932
53	0x3de7da22	0.113209024
54	0x3d587510	0.052846014
55	0x3d8d2e3f	0.06893586
56	0x3d5d8f74	0.054091886
57	0x3be5ce27	0.0070131007
58	0x3deeffe6	0.116699025
59	0xbdad10de	-0.08450483
60	0x3ca66410	0.020311385
61	0xbda975ad	-0.08274398
62	0x3d523bb9	0.051326487
63	0xbd135568	-0.03597012
64	0x3d5e312c	0.054246113
65	0xbc847f08	-0.016173854
66	0x3dfd54f0	0.12369716
67	0xbd8e0f5d	-0.06936524
68	0xbd89ad0c	-0.06722459
69	0xbd877d05	-0.066156425
70	0x3e0c3a89	0.13694204
71	0x3d70501c	0.05867015
72	0x3e130265	0.14356382
73	0xbdccfbca	-0.100089625
74	0xbdfb888b	-0.12281903
75	0xbdc0c63a	-0.09412809
76	0xbda62ec7	-0.08114391
77	0x3d805c13	0.06267562
78	0x3d621c5a	0.05520282
79	0x3df71971	0.120653994
80	0xbd7946a6	-0.06085839
81	0xbdb65ae0	-0.08904052
82	0x3d9208c3	0.071305774
83	0xbd786b50	-0.060649216
84	0x3da44781	0.08021451
85	0xbce7dbaa	-0.028302986
86	0x3da2e75f	0.07954287
87	0xbde39c24	-0.11113766
88	0xbd9954de	-0.0748689
89	0x3d2c23a8	0.042026192
90	0x3cff845d	0.031191045
91	0xbd1b9ec7	-0.03799322
92	0x3d96fb80	0.073721886
93	0x3db26e30	0.08712423
94	0xbdccc097	-0.09997671
95	0xbd9a076c	-0.07520947
96	0x3df48e9a	0.119412616
97	0xbd53ce82	-0.051710613
98	0xbd597d43	-0.053097975
99	0xbe0904ea	-0.13380781
100	0xbda2cb59	-0.07948942
101	0x3d08f983	0.033441078
102	0xbc966ef9	-0.018363463
103	0xbdcc4374	-0.09973803
104	0x3b998685	0.0046852254
105	0xbdabb6b6	-0.08384459
106	0xbdcd903d	-0.10037277
107	0xbd808367	-0.06275063
108	0xbe064f14	-0.13116103
109	0xbdc7aeb9	-0.097501226
110	0x3e015de6	0.12633476
111	0x3c8f4699	0.017489718
112	0x3d1e1ea3	0.038603436
113	0xbdfc796f	-0.12327849
114	0xbda7c4c7	-0.08191829
115	0xbd0d6181	-0.034516815
116	0x3d03b06e	0.03215068
117	0xbdddd2db	-0.10831233
118	0xbd38b98e	-0.045098834
119	0xbd8805f7	-0.06641763
120	0x3c6007b4	0.013673712
121	0xbd2a07d0	-0.041511357
122	0xbb660d91	-0.00351033
123	0xbdb0f9c0	-0.08641386
124	0xbdb05d45	-0.0861154
125	0xbd93c988	-0.072161734
126	0xbd2a42ed	-0.04156773
127	0xbdd7b621	-0.10532785
128	0x3de89d85	0.113581695
129	0xbce646ec	-0.02810999
130	0x3dea6bb5	0.11446325
131	0x3d0aeeea	0.033919252
132	0xbe04b910	-0.1296122
133	0x3d9d86c9	0.07691724
134	0xbd5eb256	-0.054369293
135	0xbd91eed1	-0.07125629
136	0xbe06f913	-0.13180952
137	0xbe1928c3	-0.14956956
138	0x3cfa086b	0.030521592
139	0xbd1e3e40	-0.038633585
140	0x3d189f2b	0.03726117
141	0xbe056765	-0.13027723
142	0x3dae09d9	0.08497972
143	0xbdd87d41	-0.10570765
144	0xbcaa6392	-0.020799432
145	0x3d069587	0.032857444
146	0x3d939513	0.07206168
147	0x3de2355a	0.11045332
148	0x3e010f81	0.1260357
149	0xbdd380b5	-0.10327283
150	0x3d2a03b2	0.04150743
151	0xbd4bdc11	-0.04977042
152	0xbc42e015	-0.011894246
153	0xbdd82f08	-0.105558455
154	0x3df239fe	0.118274674
155	0xbdd122b0	-0.10211694
156	0x3da04164	0.07824972
157	0x3d7ef072	0.062241025
158	0x3d7ca34c	0.06167917
159	0xbd80c8af	-0.06288277
160	0x3e027539	0.1274003
161	0x3d0b3c5f	0.03399312
162	0x3c777105	0.01510263
163	0xbdf93741	-0.12168742
164	0x3d5e79c7	0.054315355
165	0xbcc03323	-0.023461884
166	0xbd8716b6	-0.06596129
167	0x3de73b36	0.112905905
168	0x3ce760a7	0.02824433
169	0xbd97d973	-0.07414522
170	0xbd872b41	-0.06600047
171	0xbb962bce	-0.0045828586
172	0x3da1ef87	0.07907014
173	0xbcf2f612	-0.029658351
174	0xbd9340c8	-0.071900904
175	0xbd2dedc4	-0.04246308
176	0xbdc7d423	-0.09757259
177	0x3d586262	0.0528282
178	0x3ddbc63b	0.10731169
179	0xbe06d665	-0.13167723
180	0x3ccb52fd	0.024819845
181	0x3d82fa50	0.063953996
182	0x3cac9962	0.021069232
183	0xbd4a3213	-0.04936416
184	0x3d92e0a1	0.07171751
185	0x3d95e6b2	0.07319392
186	0x3d5b5a83	0.053553116
187	0xbca6155f	-0.020273862
188	0xbd02f953	-0.031976055
189	0x3cc7663e	0.024340745
190	0xbca959b4	-0.020672657
191	0xbd2ea65f	-0.042639133
192	0x3da64329	0.081182785
193	0x3de52390	0.11188424
194	0xbc55d839	-0.01305204
195	0xbced98a9	-0.029003458
196	0xbb0739cd	-0.0020633817
197	0xbc815abc	-0.015790336
198	0x3cc992ac	0.024606071
199	0x3cfba11b	0.03071647
200	0xbe068c76	-0.13139519
201	0xbd6730f9	-0.05644319
202	0x3de0956f	0.10966002
203	0x3d3e045b	0.046390872
204	0xbc742524	-0.014901433
205	0xbdaf60a7	-0.08563357
206	0xbda58b4e	-0.08083211
207	0xbdf2a213	-0.118473195
208	0xbd3c9023	-0.046035897
209	0x3d1f4029	0.038879547
210	0x3da09fa0	0.07842946
211	0x3d69ea75	0.05710836
212	0xbdf7dc2b	-0.121025406
213	0xbda7926f	-0.08182227
214	0xbcd3e463	-0.02586574
215	0x3e004456	0.12526068
216	0x3c57f166	0.0131801125
217	0xbd2e3417	-0.042530145
218	0x3d3f5e92	0.04672105
219	0xbd7f5a8c	-0.06234221
220	0xbdc56089	-0.09637553
221	0x3dc18a6b	0.09450229
222	0xbd83b500	-0.064310074
223	0xbcf16d6e	-0.029471125
224	0xbe0e83a9	-0.13917412
225	0x3db25582	0.087077156
226	0x3dc95324	0.09830311
227	0x3d3143f3	0.043277692
228	0xbdceccce	-0.10097657
229	0xbe0ee52a	-0.13954607
230	0xbdef54bd	-0.116860844
231	0x3dc0b0f0	0.09408748
232	0x3d720654	0.059088066
233	0x3de79fb7	0.1130976
234	0x3d99e41c	0.075142115
235	0x3d232d57	0.03983816
236	0x3b55701e	0.0032568048
237	0xbdd0635a	-0.101752
238	0xbdeb551d	-0.114908434
239	0xbdfddff9	-0.12396235
240	0x3d723ff0	0.059143007
241	0xbd80b5db	-0.06284686
242	0xbcba0101	-0.022705557
243	0xbda68804	-0.08131412
244	0xbcdfb283	-0.0273068
245	0xbdc33578	-0.09531683
246	0xbdb30815	-0.08741776
247	0x3d27a7f7	0.040931668
248	0xbd533fbd	-0.051574457
249	0x3d947815	0.07249466
250	0xbd34f040	-0.044174433
251	0xbdb7f8e0	-0.08983016
252	0xbc6f0793	-0.014589208
253	0xbd861335	-0.06546632
254	0xbd481a23	-0.04885305
255	0xbe0a1850	-0.13485837

features.0.bias f4 [32]
0	0x3ce550df	0.027992664
1	0xbd8a6c34	-0.06758919
2	0xbd8135b2	-0.0630907
3	0x3dea0677	0.11427014
4	0x3d7a2870	0.06107372
5	0xbcf84ad3	-0.030309116
6	0x3cc5148c	0.02405765
7	0x3d0a6307	0.033785846
8	0x3d0688d9	0.03284535
9	0xbd4ff170	-0.050767362
10	0xbda5e10b	-0.08099564
11	0x3dc38668	0.0954712
12	0x3c76365a	0.015027607
13	0x3d4b2acd	0.049601365
14	0xbd3dc5ba	-0.046331145
15	0x3d7ac3ef	0.061222013
16	0x3dbfe395	0.0936958
17	0x3da570d6	0.08078162
18	0x3d28735c	0.04112564
19	0x3e0b1df5	0.13585646
20	0xba6182f5	-0.0008602583
21	0x3cdf577b	0.027263394
22	0x3e05abab	0.13053767
23	0x3e091de9	0.13390316
24	0xbd65345b	-0.055958133
25	0x3dfee414	0.12445846
26	0x3d58eb98	0.052959055
27	0xbc64b171	-0.013958321
28	0x3dee5e5c	0.11639091
29	0xbd8ac3a2	-0.06775595
30	0x3dba3a5e	0.09093164
31	0x3e06fda9	0.13182701

features.1.weight f4 [32]
0	0x3f7de6fa	0.9918057
1	0x3f7fd3a8	0.99932337
2	0x3f801147	1.0005273
3	0x3f7c75f5	0.9861749
4	0x3f7ec9a9	0.9952646
5	0x3f7ebe14	0.99508786
6	0x3f7f115e	0.99635875
7	0x3f7fafd6	0.9987768
8	0x3f7c2bf5	0.98504573
9	0x3f7f6cdc	0.9977548
10	0x3f7d66f7	0.98985237
11	0x3f7eb8a1	0.9950047
12	0x3f81bdd8	1.0136061
13	0x3f80e3f7	1.0069569
14	0x3f7ff3ef	0.9998159
15	0x3f7f842a	0.9981104
16	0x3f7f63cf	0.9976167
17	0x3f7d5b75	0.9896768
18	0x3f7f0d50	0.9962969
19	0x3f80bf91	1.0058461
20	0x3f809eeb	1.0048498
21	0x3f80eeb0	1.0072842
22	0x3f7da314	0.9907696
23	0x3f80e0e4	1.0068631
24	0x3f7fa231	0.9985686
25	0x3f7e6348	0.9937024
26	0x3f807f8a	1.0038922
27	0x3f7cd338	0.98759794
28	0x3f8041c7	1.0020074
29	0x3f7eb589	0.9949575
30	0x3f7caa27	0.9869713
31	0x3f7e81a8	0.9941659

features.1.bias f4 [32]
0	0xbc1ad93d	-0.009451208
1	0xbc3338d3	-0.010938841
2	0xbc632679	-0.013864153
3	0xbc068c76	-0.008212199
4	0xba983b3a	-0.001161433
5	0xbc259f12	-0.010108726
6	0xbc1e70f9	-0.0096704895
7	0xbc3d86e6	-0.011567807
8	0xbc206b05	-0.00979114
9	0xbc73e925	-0.014887129
10	0xbca19eed	-0.019729102
11	0xbc7f1b76	-0.015570512
12	0xbc8be161	-0.017075242
13	0xbbb5ed0b	-0.0055519394
14	0xbbced32e	-0.0063117957
15	0xbc67b470	-0.014142141
16	0xbca064ef	-0.019579379
17	0xbbf85ca3	-0.0075794025
18	0xbc57bb34	-0.013167191
19	0xbc3094b8	-0.010777645
20	0xbc4c5fb5	-0.01247399
21	0xbc0633a3	-0.008191022
22	0xbac58d71	-0.001507206
23	0xbc4151f6	-0.011799326
24	0xbb4737d2	-0.0030398262
25	0xbc1999ae	-0.009375019
26	0xbc70bec4	-0.01469392
27	0xbb802760	-0.003910944
28	0xbce4f69d	-0.027949626
29	0xba8718aa	-0.0010307033
30	0x39d881ab	0.0004129534
31	0xbc20a148	-0.009804077

features.1.running_mean f4 [32]
0	0x3ce25ae2	0.027631227
1	0xbd8aa589	-0.067698546
2	0xbd80e96c	-0.06294522
3	0x3de9dbe3	0.11418893
4	0x3d7a4416	0.061100088
5	0xbcf93938	-0.030422792
6	0x3cc24c1b	0.02371793
7	0x3d090c1d	0.033458818
8	0x3d078248	0.03308323
9	0xbd4f9a3e	-0.050684206
10	0xbda5a23b	-0.08087584
11	0x3dc38dbc	0.09548518
12	0x3c74d0b4	0.014942337
13	0x3d4b7730	0.049674213
14	0xbd3ea1a4	-0.04654087
15	0x3d7ae9ef	0.061258253
16	0x3dc026cb	0.09382399
17	0x3da5c0bc	0.08093402
18	0x3d28d0c5	0.041214723
19	0x3e0b5d81	0.13609888
20	0xba6bdf5e	-0.0008997823
21	0x3cde9e33	0.027175045
22	0x3e0616b1	0.13094594
23	0x3e09387e	0.13400456
24	0xbd65e819	-0.05612955
25	0x3dff0f69	0.12454111
26	0x3d5977e0	0.053092837
27	0xbc66c4c4	-0.0140849985
28	0x3dee270a	0.1162854
29	0xbd8ae38a	-0.06781681
30	0x3dba003d	0.09082077
31	0x3e0720b8	0.13196075

features.1.running_var f4 [32]
0	0x30513f8e	7.6124074e-10
1	0x3017bedc	5.520471e-10
2	0x30a9031c	1.2297252e-09
3	0x2f82bd50	2.3781377e-10
4	0x301ecaf0	5.7768457e-10
5	0x3082c97c	9.51601e-10
6	0x3109a06a	2.0027309e-09
7	0x2fdea6cd	4.0500084e-10
8	0x2f93109e	2.6750951e-10
9	0x30412a9e	7.0273554e-10
10	0x308a3994	1.0057186e-09
11	0x30b61aeb	1.3249893e-09
12	0x303a27c6	6.772293e-10
13	0x302098cf	5.8424815e-10
14	0x2ff64243	4.479422e-10
15	0x30310579	6.44e-10
16	0x307c37d2	9.175639e-10
17	0x309b9000	1.1318662e-09
18	0x306057c7	8.1615464e-10
19	0x30079aeb	4.9332866e-10
20	0x300ab66c	5.0463345e-10
21	0x2ff7f5bf	4.510365e-10
22	0x301a779b	5.6194843e-10
23	0x3012f4b2	5.3462224e-10
24	0x2f72333a	2.2027971e-10
25	0x2fdaee60	3.9823345e-10
26	0x3052949f	7.660876e-10
27	0x2fa50b04	3.0021152e-10
28	0x30d64227	1.5589351e-09
29	0x2f757d84	2.2327212e-10
30	0x2f7c87ad	2.2967468e-10
31	0x301c8895	5.6946564e-10

features.4.weight f4 [32, 32, 5]
0	0xbd433ac4	-0.047663465
1	0xbd2aac6c	-0.04166834
2	0xbd8d83a1	-0.06909872
3	0xbc0ab19e	-0.008465199
4	0xbd8876cc	-0.06663284
5	0xbcce254f	-0.025164274
6	0x3ca5ea7e	0.020253416
7	0x3d420728	0.047370106
8	0x3d122c49	0.035686765
9	0x3d1f7047	0.038925435
10	0x3d17e853	0.037086796
11	0xbd26ec01	-0.040752415
12	0xbd5e1f61	-0.054229144
13	0x3c2734a6	0.010205423
14	0x3da65b05	0.08122829
15	0xbba219ea	-0.004946937
16	0xbca959ec	-0.02067276
17	0xbd65902d	-0.0560457
18	0xbd3ebf96	-0.04656943
19	0xbd8dc348	-0.069220126
20	0x3d85b611	0.06528867
21	0xbc3979d2	-0.011320548
22	0xbd750bee	-0.05982583
23	0x3cd94b42	0.026525144
24	0x3c3d1b35	0.011542131
25	0xbba4a7fb	-0.0050249076
26	0x3d13b82e	0.03606432
27	0x3d4b7eaf	0.04968136
28	0xbd7d4187	-0.06183007
29	0xbd189af5	-0.037257154
30	0xbb15f823	-0.0022883497
31	0xbd93db3d	-0.07219551
32	0xbd886d0e	-0.066614255
33	0x3d8b1909	0.067918845
34	0xbaee4a86	-0.0018180169
35	0xbd0b19a3	-0.033959996
36	0xbcb9cf47	-0.022681845
37	0xbd6c1cf5	-0.057644803
38	0x3d872c24	0.06600216
39	0xbc97655a	-0.018480945
40	0xbd2f3f96	-0.04278525
41	0xbd859b75	-0.06523792
42	0x3d20dab1	0.03927106
43	0xbcea0b8f	-0.028569965
44	0xbcb06ed7	-0.021537228
45	0xbc53f6cb	-0.012937258
46	0xbcd8959a	-0.026438523
47	0x3c9e0385	0.019288788
48	0x3d8c14bd	0.06839893
49	0xbd3c941c	-0.046039686
50	0x3bcb7c1a	0.0062098624
51	0xbd5c849a	-0.053837396
52	0xbce8b52a	-0.028406698
53	0x3da27dd8	0.07934159
54	0x3be6bf9a	0.0070418837
55	0x3d9fa34e	0.0779482
56	0xbc6505bf	-0.013978421
57	0xbd2ff624	-0.042959347
58	0xbd42df6e	-0.04757636
59	0x3d86791b	0.06566068
60	0xbd2a8f60	-0.04164064
61	0x3d57cf77	0.05268809
62	0x3d126586	0.03574135
63	0x3d148f0f	0.036269244
64	0x3d6c85e3	0.05774487
65	0xbc41d944	-0.011831585
66	0x3d5b0ec8	0.053480893
67	0xbd7c34d0	-0.061573803
68	0xbd1e1946	-0.03859832
69	0x3d7b6274	0.06137319
70	0x3d0cd73e	0.03438496
71	0xba448d5f	-0.00074978726
72	0xbce00a31	-0.02734861
73	0xbd49bab4	-0.04925032
74	0x3d307b14	0.043086126
75	0x3c36b532	0.011151599
76	0x3c7c3e0b	0.015395652
77	0x3d22ba76	0.039728604
78	0x3da79319	0.081823535
79	0xbcb76759	-0.022388147
80	0xbcd97293	-0.026543891
81	0x3d63ed52	0.05564625
82	0x3d43cf96	0.04780539
83	0xbd2186bc	-0.039435133
84	0xbda8a7fb	-0.08235165
85	0x3ca85508	0.020548359
86	0x3d5eb382	0.05437041
87	0x3cfc106e	0.030769553
88	0x3d81e5da	0.06342669
89	0xbd73149b	-0.059345823
90	0x3d3388da	0.043831684
91	0xbd44514a	-0.047929086
92	0x3d383f2c	0.04498212
93	0x3d6ed73a	0.058310725
94	0x3cbf0ebd	0.023322457
95	0x3d687415	0.05675133
96	0xbd78e075	-0.060760934
97	0xbd8df5bd	-0.069316365
98	0xbd71fcdf	-0.059079047
99	0x3da2198b	0.07915028
100	0x3c8fe403	0.01756478
101	0xbd88e7cb	-0.06684836
102	0x3cd63280	0.026147127
103	0x3d8b4582	0.06800367
104	0xbdb4a4e1	-0.08820511
105	0x3d634935	0.055489738
106	0x3c5d9db5	0.01352637
107	0x3b9b36f1	0.004736774
108	0x3d916f0b	0.07101258
109	0x3d980e23	0.07424571
110	0x3d0094fb	0.03139208
111	0x3d83d59f	0.06437229
112	0x3d125419	0.035724733
113	0x3c6544c0	0.013993442
114	0xbd81e928	-0.06343299
115	0x3b184dd4	0.0023239749
116	0xbd69a80d	-0.05704503
117	0x3cc62654	0.024188198
118	0x3c9ee539	0.019396411
119	0x3b7ded63	0.003874623
120	0xbd762103	-0.060090076
121	0xbd89ecb8	-0.06734604
122	0x3d2aa94c	0.04166536
123	0x3d0cf2bb	0.034411173
124	0x3d23d07b	0.039993744
125	0xbd232083	-0.039825927
126	0xbccaec58	-0.0247709
127	0xbcf221b1	-0.029557081
128	0x3d4f1420	0.050556302
129	0xbcf52c79	-0.029928433
130	0x3d4d497e	0.050118916
131	0x3d6035d6	0.054738842
132	0xbd97d8d5	-0.07414404
133	0xbb90e23e	-0.0044215014
134	0xbc359eb7	-0.011085204
135	0xbd33ae0e	-0.043867163
136	0x3d4657a8	0.04842344
137	0x3b0746f9	0.0020641668
138	0x3d9308f4	0.07179442
139	0xbd281629	-0.04103676
140	0x3d3fd750	0.046836197
141	0xbd6e02c6	-0.058108114
142	0xbd126538	-0.03574106
143	0x3c0e5d0d	0.008689177
144	0x3d849121	0.06472994
145	0x3d49bdfb	0.049253445
146	0xbd566604	-0.052343383
147	0x3c855e3f	0.016280292
148	0xbd23fb71	-0.040034715
149	0x3c17d5a0	0.009267241
150	0xbd73df41	-0.059539083
151	0xbc409415	-0.0117540555
152	0x3d5e84f7	0.054326024
153	0xbd92f4a2	-0.07175566
154	0xbd96b384	-0.07358459
155	0x3c6e0c7e	0.014529346
156	0x3c939d78	0.018019423
157	0xbb772436	-0.0037710792
158	0x3d9a7807	0.07542425
159	0xbd3887ce	-0.04505139
160	0xbd42a116	-0.047516905
161	0xbd7cc539	-0.061711524
162	0xbcc71449	-0.024301665
163	0xbcdc5572	-0.026896212
164	0x3d5668a1	0.052345876
165	0xbc2a8cf3	-0.0104095815
166	0x3cce7950	0.02520433
167	0xbcf98ce4	-0.03046269
168	0x3d6ab44a	0.057300843
169	0x3d7fab91	0.062419478
170	0xbd96dfbd	-0.073668934
171	0xbcadc0fc	-0.021210186
172	0xbd92dd06	-0.07171063
173	0x3cd49987	0.025952114
174	0xbdaa5e62	-0.08318783
175	0xbcd64dd5	-0.02616016
176	0x3dbc43b7	0.09192603
177	0xbd77fbd8	-0.06054291
178	0x3d871ac9	0.06596906
179	0xba6ed66a	-0.00091109297
180	0x3d99e840	0.07515001
181	0xbcf090a2	-0.029365841
182	0x3d73bad0	0.05950433
183	0x3c8c25d6	0.017107885
184	0x3ca4ea16	0.020131152
185	0x3d45fa72	0.048334546
186	0xbda9a244	-0.08282903
187	0xbd664b4a	-0.056224145
188	0x3db09db3	0.08623829
189	0xbd1bf716	-0.038077436
190	0xbd72b8a4	-0.05925812
191	0xbc2d97bd	-0.010595259
192	0xbcb7812e	-0.022400465
193	0xbc3a3330	-0.011364743
194	0xbd58f6d0	-0.052969754
195	0x3d08f5e7	0.033437636
196	0xbd8c1ed1	-0.06841815
197	0x3c25831e	0.010102062
198	0x3d45ad57	0.048261013
199	0x3c385353	0.011250335
200	0x3c3335a3	0.010938081
201	0x3c162678	0.009164445
202	0xbcda2c59	-0.026632475
203	0xbcc2fc52	-0.023801956
204	0xbd301957	-0.042992916
205	0xbd6292b6	-0.055315696
206	0xbd5b5d04	-0.053555503
207	0x3d9d361a	0.07676335
208	0xbc1c6749	-0.0095461095
209	0x3cdde6c7	0.027087582
210	0x3d4e98f1	0.050438825
211	0xbacc1d30	-0.0015572663
212	0xbd126909	-0.0357447
213	0xbd2ba62e	-0.04190653
214	0xbc899303	-0.016793733
215	0x3d012e36	0.03153821
216	0xbd72e6ca	-0.05930213
217	0xbb272800	-0.002550602
218	0x3d11d96d	0.035607744
219	0x3d87fe11	0.06640256
220	0x3caf80db	0.021423748
221	0x3c71bc1f	0.014754324
222	0x3d6af3db	0.057361465
223	0x3d2455de	0.04012095
224	0x3d01f991	0.031732146
225	0xbc9defae	-0.019279327
226	0xbd447ac8	-0.047968656
227	0xbc0cf682	-0.008603694
228	0xbc448510	-0.011994615
229	0x3c28944c	0.010289263
230	0x3abdaff4	0.0014471994
231	0x3d113670	0.035452306
232	0x3d46660a	0.048437156
233	0xbcc25c22	-0.023725573
234	0xbd87b3a4	-0.066260606
235	0xbd26021f	-0.040529367
236	0xbd1f315a	-0.038865425
237	0x3d2b1212	0.04176528
238	0xbd37e259	-0.044893596
239	0xbc7f11d5	-0.015568216
240	0xbca719fd	-0.020398134
241	0xbd2b54e0	-0.04182899
242	0x3d2a9615	0.041647036
243	0xbce4a3ad	-0.027910078
244	0x3a903679	0.0011002562
245	0xbd5e3a46	-0.054254793
246	0xbb7c8fb6	-0.0038537807
247	0x3c80f37d	0.015741104
248	0xbbd8c06f	-0.0066147367
249	0xbd0112c5	-0.03151204
250	0x3cce1a0b	0.025158903
251	0xbca955ef	-0.02067086
252	0xbd2ec89c	-0.042671785
253	0xbd7e1a94	-0.062037066
254	0xbca33277	-0.019921524
255	0xbda1fc03	-0.079093955

features.4.bias f4 [32]
0	0x3c2e1a7a	0.01062643
1	0xbd0a64a0	-0.03378737
2	0xbd92fef8	-0.07177538
3	0xbd9c5bbc	-0.076346844
4	0xbd383bad	-0.044978786
5	0xbd82434e	-0.063604936
6	0x3d5ef391	0.0544315
7	0xbcc15274	-0.023598887
8	0xbd64d175	-0.055863816
9	0x3b8d83a6	0.004318672
10	0xbd205ce7	-0.0391511
11	0xbc55ea33	-0.013056326
12	0x3d96fecc	0.073728174
13	0xbd9a6eca	-0.075406626
14	0xbd8d8392	-0.06909861
15	0x3c8317ed	0.01600262
16	0x3d36ab27	0.044596817
17	0xbdaa3ae9	-0.083120175
18	0x3c9c285c	0.019062214
19	0x3d8e2d55	0.0694224
20	0xbced2639	-0.02894889
21	0xbd2405c1	-0.04004455
22	0x3cd74128	0.026276186
23	0x3d266696	0.040625177
24	0xbc809652	-0.015696678
25	0xbd89891a	-0.06715603
26	0x3bb13c6b	0.0054088137
27	0xbd28d7ce	-0.041221432
28	0xbd8c9103	-0.06863596
29	0x3d3495fc	0.04408835
30	0x3d5f228f	0.054476317
31	0x3d153174	0.036424115

features.5.weight f4 [32]
0	0x3f7f3e92	0.9970485
1	0x3f7d2c99	0.98896176
2	0x3f7ca9f3	0.9869682
3	0x3f7e0997	0.9923338
4	0x3f811f4d	1.0087677
5	0x3f801076	1.0005023
6	0x3f80ee89	1.0072795
7	0x3f7d5bf1	0.98968416
8	0x3f805404	1.002564
9	0x3f7ca6b5	0.98691875
10	0x3f806f65	1.0033995
11	0x3f7e301c	0.9929216
12	0x3f7f3a40	0.9969826
13	0x3f7d446f	0.98932546
14	0x3f821bd7	1.0164746
15	0x3f803af3	1.001799
16	0x3f823242	1.0171587
17	0x3f7ce4a2	0.98786366
18	0x3f812cc6	1.0091789
19	0x3f813388	1.0093851
20	0x3f7d906b	0.9904849
21	0x3f7f4285	0.99710876
22	0x3f830665	1.0236326
23	0x3f7e5f09	0.9936376
24	0x3f7d1cb7	0.9887194
25	0x3f7ec9c5	0.99526626
26	0x3f7fb932	0.9989196
27	0x3f80d03f	1.0063552
28	0x3f815840	1.0105057
29	0x3f8053b5	1.0025545
30	0x3f7e8bc4	0.99432015
31	0x3f7ee5f1	0.9956961

features.5.bias f4 [32]
0	0xb994b7b1	-0.0002836562
1	0x3bc59969	0.006030251
2	0xbcb4f8f7	-0.022091372
3	0xbce0b865	-0.027431676
4	0xbbbb9a15	-0.005725155
5	0xbd093fa6	-0.033507966
6	0xbd02b907	-0.031914737
7	0xbcaa07b0	-0.020755619
8	0xbc9acea0	-0.018897355
9	0xbc99d956	-0.018780392
10	0xbb510d5e	-0.0031898837
11	0xbc276a13	-0.010218161
12	0xbbd32167	-0.006443191
13	0xbc95ee18	-0.018302009
14	0xbc69edc2	-0.014277877
15	0xbc7178f5	-0.014738311
16	0xba7c365c	-0.0009621137
17	0xbcd9276d	-0.026508057
18	0xbd200d22	-0.039075024
19	0xbc6704dd	-0.014100281
20	0xbd4559c3	-0.048181307
21	0xbcce81c2	-0.025208358
22	0x3c6131e2	0.013744803
23	0xbd51d348	-0.051226884
24	0xbd1e1169	-0.038590822
25	0xb80a22a0	-3.293401e-05
26	0x38fcf3e7	0.00012061727
27	0xbc551db8	-0.013007574
28	0xbcb18ba3	-0.02167303
29	0xbcd9018e	-0.02649
30	0xbcc8820c	-0.024476074
31	0xbc0705fd	-0.008241174

features.5.running_mean f4 [32]
0	0x3c2e8636	0.010652116
1	0xbd0b941c	-0.034076795
2	0xbd931563	-0.071818136
3	0xbd9c9688	-0.07645899
4	0xbd3f0847	-0.046638753
5	0xbd8297cc	-0.06376609
6	0x3d651e77	0.055937257
7	0xbcbce54c	-0.023058556
8	0xbd637e1d	-0.055540193
9	0x3b83fca8	0.0040279217
10	0xbd1d1315	-0.038348276
11	0xbc63811e	-0.013885764
12	0x3d992012	0.0747682
13	0xbd9a6fb2	-0.075408354
14	0xbd8e22e6	-0.0694025
15	0x3c860a32	0.016362283
16	0x3d38cd67	0.045117762
17	0xbda9aae9	-0.08284552
18	0x3ca43527	0.020044876
19	0x3d905f11	0.070493825
20	0xbce5cb5f	-0.028051076
21	0xbd25de39	-0.04049513
22	0x3cdcbcef	0.02694556
23	0x3d250f0e	0.04029756
24	0xbc72a87a	-0.014810676
25	0xbd8adf11	-0.06780828
26	0x3bca871e	0.006180658
27	0xbd2a6e52	-0.041609116
28	0xbd8d3ccc	-0.06896362
29	0x3d387dd6	0.04504188
30	0x3d63aa1a	0.055582143
31	0x3d155d51	0.036465947

features.5.running_var f4 [32]
0	0x35b7cc7a	1.3694073e-06
1	0x363b7858	2.793522e-06
2	0x35dc0b2a	1.6394526e-06
3	0x3651d804	3.1269165e-06
4	0x363c0a89	2.8020315e-06
5	0x3641c717	2.8875127e-06
6	0x364b59ea	3.0301694e-06
7	0x35d4d518	1.5857249e-06
8	0x35977c66	1.1286581e-06
9	0x3585e393	9.975505e-07
10	0x361b7a5f	2.316803e-06
11	0x3615293a	2.2226727e-06
12	0x35f590a1	1.8296015e-06
13	0x361571d5	2.226899e-06
14	0x35dc4f27	1.6414314e-06
15	0x3658bd19	3.2296578e-06
16	0x36721115	3.6070753e-06
17	0x35ec0b85	1.7586723e-06
18	0x3641ebc0	2.8896466e-06
19	0x366a71a5	3.4934867e-06
20	0x36579888	3.2126281e-06
21	0x35ba9abc	1.3903114e-06
22	0x3615d71e	2.2327945e-06
23	0x3645314b	2.938398e-06
24	0x369b5ee7	4.630408e-06
25	0x3619dc63	2.2927059e-06
26	0x36081f23	2.0283703e-06
27	0x362e81cc	2.6003572e-06
28	0x35b4e8fc	1.3478852e-06
29	0x35fd9bac	1.8895275e-06
30	0x365207a6	3.129689e-06
31	0x35f495be	1.8222997e-06

features.8.weight f4 [32, 32, 5]
0	0xbd93bcbe	-0.07213734
1	0x3d6e4385	0.05816986
2	0x3d79ed55	0.061017353
3	0x3da5cdc8	0.0809589
4	0x3c61f924	0.01379231
5	0xbd079ba6	-0.033107422
6	0xbda27e88	-0.0793429
7	0x3d3c05b9	0.045903895
8	0xbc0c07fd	-0.008546826
9	0xbda7c8d3	-0.08192601
10	0x3da8a441	0.08234454
11	0xbb911a29	-0.0044281674
12	0x3d5a0ece	0.053236775
13	0xbc3f841a	-0.01168921
14	0xbc820a88	-0.015874162
15	0x3d8c03a9	0.068366356
16	0x3d8a737d	0.06760309
17	0xbcbf9fd3	-0.02339164
18	0x3c178959	0.009249055
19	0x3d79d1ca	0.060991086
20	0x39a77efc	0.00031947333
21	0xbc23965c	-0.009984579
22	0x3d75cf04	0.06001188
23	0x3d7cccb5	0.06171866
24	0xbd14e481	-0.03635073
25	0x3d737f44	0.05944754
26	0xbaaf1cac	-0.0013359985
27	0x3bba1027	0.005678195
28	0x3d7d5e37	0.06185743
29	0xbbdeda0f	-0.006800897
30	0x3b90c40d	0.0044179023
31	0xbbd7004f	-0.006561316
32	0xbd85f446	-0.06540732
33	0x3d691d5c	0.056912765
34	0xbd94a653	-0.07258286
35	0xbd470fb1	-0.04859895
36	0x3cddd253	0.02707783
37	0xb98b1e00	-0.00026534498
38	0x3aab7f46	0.0013084195
39	0xb8557aa6	-5.0897383e-05
40	0x3d9f2803	0.077713035
41	0xbd908a32	-0.07057609
42	0xbd337bf8	-0.043819398
43	0x3c1febff	0.009760856
44	0xbd9dcce6	-0.07705097
45	0xbd67d087	-0.05659535
46	0x3d75eaa9	0.060038242
47	0x3d4527e0	0.04813373
48	0xbcca49b3	-0.024693346
49	0x3cb5a68f	0.022174148
50	0x3d3bd978	0.04586169
51	0x3c91e71f	0.017810402
52	0x3dc76e2d	0.09737811
53	0x3c27eea6	0.010249769
54	0x3da8312a	0.08212502
55	0xbd76ab56	-0.060221992
56	0xbd3ad3d9	-0.04561219
57	0xbbdb804b	-0.0066986433
58	0x3c9e9a43	0.019360667
59	0xbd5b1958	-0.053490967
60	0x3d60e1f9	0.054903004
61	0xbd87d2b9	-0.06631989
62	0xbc7d0dcf	-0.015445187
63	0x3d6b0a76	0.057383023
64	0xbd41fb53	-0.047358822
65	0xbd8735b3	-0.06602039
66	0xbc8b708c	-0.01702144
67	0xbd7f1674	-0.062277272
68	0x3ca7b5ff	0.020472525
69	0xbcb821c5	-0.02247704
70	0xbc997e15	-0.018736878
71	0x3d510f77	0.05104014
72	0x3ca12e74	0.01967547
73	0xbd819eeb	-0.06329139
74	0xbd95b299	-0.073094554
75	0x3d6f5cf2	0.05843825
76	0x3d0e8af5	0.03480049
77	0x3d6c7cfd	0.057736386
78	0xbd658147	-0.05603149
79	0xbb88e932	-0.0041781897
80	0x3db760a7	0.08953982
81	0x3daafec7	0.08349376
82	0x3d88bc98	0.066765964
83	0x3da9b095	0.082856335
84	0xbcea9dd6	-0.028639715
85	0xbd50eaab	-0.051005047
86	0x3d40a3d3	0.047031235
87	0x3d82d4d1	0.06388248
88	0xbca42b04	-0.020040043
89	0x3c578059	0.013153159
90	0x3bedc768	0.007256437
91	0xbd617982	-0.05504752
92	0xbccdc2c2	-0.025117282
93	0xbc74a199	-0.014931106
94	0x3cee9c24	0.029127188
95	0xbcaf2cfe	-0.021383759
96	0x3d363c9c	0.044491395
97	0x3da2a402	0.07941438
98	0xbbdfb932	-0.006827497
99	0xbbfff655	-0.0078113475
100	0xbd3ddcaf	-0.04635304
101	0x3a884b78	0.0010398468
102	0xbd8deed5	-0.06930319
103	0x3d514f45	0.051100988
104	0x3d7caa3e	0.061685793
105	0x3c9f96ea	0.019481141
106	0x3d99be5a	0.0750701
107	0x3d2a20ff	0.041535374
108	0x3d44abe5	0.048015494
109	0x3d90043e	0.07032059
110	0xbd30f75e	-0.043204658
111	0x3a23710b	0.0006234801
112	0x3d29f4db	0.041493278
113	0xbb9e55da	-0.0048320116
114	0xbd27b6b0	-0.04094571
115	0xbcb7d7ac	-0.022441708
116	0xbd074a0f	-0.033029612
117	0xbd044739	-0.032294486
118	0xbd79263f	-0.06082749
119	0xbcaa8ca8	-0.020819023
120	0x3d3c5a8a	0.045984782
121	0xbcc07a60	-0.023495853
122	0x3d15ec54	0.036602333
123	0xbd70f621	-0.058828477
124	0xbd38b60f	-0.0450955
125	0x3c138fa0	0.009006411
126	0x3d94771f	0.07249283
127	0xbd7ae3bf	-0.06125235
128	0x3d131f69	0.035918627
129	0x3c6ee879	0.014581793
130	0xbd366ac3	-0.04453541
131	0xbd6a5f56	-0.057219826
132	0x3d7d4bf9	0.06184003
133	0xbd794fc7	-0.060867097
134	0x3d8f241a	0.06989308
135	0xbcb8a77d	-0.022540802
136	0x3db1b40d	0.0867692
137	0xbc2e29c5	-0.010630076
138	0x3d5667db	0.052345138
139	0x3d3060f0	0.043061197
140	0xbd874a33	-0.06605949
141	0xbd52fc56	-0.051510178
142	0xbcecd67b	-0.028910866
143	0xbc08b7c9	-0.008344599
144	0x3ce81c0a	0.028333683
145	0xbd0f833b	-0.03503726
146	0x3c09ce53	0.008411008
147	0xbd3a0bd3	-0.045421433
148	0xbd46a803	-0.048500072
149	0x3d3b4465	0.045719523
150	0xbca0d084	-0.019630678
151	0xbd8e7127	-0.06955176
152	0x3c2e0c04	0.010622982
153	0xbc0dec6e	-0.008662326
154	0x3cae0f86	0.021247637
155	0xbd287c26	-0.041134022
156	0xbb201183	-0.00244245
157	0xbd411b48	-0.047145158
158	0xbd56c421	-0.052433137
159	0x3b7d7d52	0.0038679433
160	0x3d366774	0.044532254
161	0x3cf11e79	0.029433476
162	0x3dc65250	0.096836686
163	0x3ca0eae9	0.019643264
164	0x3caa62c9	0.020799058
165	0xba4e46bf	-0.00078688184
166	0xbd9cc872	-0.076554194
167	0x3cfed9a8	0.031109646
168	0x3d7f2611	0.062292162
169	0xbbd3c293	-0.006462404
170	0xbd826b5b	-0.06368133
171	0x3d913988	0.07091051
172	0x3cbd33cd	0.02309599
173	0x3d7d8d2f	0.06190222
174	0x3d0bf7f8	0.03417203
175	0x3cafc610	0.021456748
176	0xbccd8364	-0.025087066
177	0x3c8f5f27	0.017501427
178	0x3c969682	0.018382315
179	0xbc9895ee	-0.01862618
180	0xbd3a477f	-0.04547834
181	0xbcc6e52f	-0.024279205
182	0xbd9b33a2	-0.075782076
183	0xbd198699	-0.037481878
184	0xbb2d4481	-0.0026438537
185	0x3d7d4d8d	0.061841536
186	0xbd2e3ed9	-0.042540405
187	0xbd9a3c71	-0.075310595
188	0x3d2a9e15	0.041654665
189	0x3d902e7f	0.070401184
190	0xbd7a82f4	-0.061160043
191	0xba958d96	-0.0011409994
192	0x3cee9b4e	0.02912679
193	0x3d61df9e	0.0551449
194	0xbc2b414d	-0.010452581
195	0x3d2a9644	0.04164721
196	0x3d6ee250	0.058321297
197	0x3d5e25e8	0.05423537
198	0x3d85c4a3	0.06531646
199	0x3d681578	0.0566611
200	0xbd81de6b	-0.06341251
201	0x3ca83f52	0.020538006
202	0x3d80cf0b	0.0628949
203	0xbd61a7b9	-0.055091593
204	0xbd88cfc3	-0.066802524
205	0xbd517614	-0.051138
206	0x3d04d0ab	0.032425564
207	0x3db6f63b	0.089336835
208	0x3b04f71b	0.0020288888
209	0xbcaa321f	-0.020775853
210	0x3ce7e398	0.028306767
211	0xbd54a874	-0.051918462
212	0x3d0f7eb2	0.035032935
213	0xbd45d3f2	-0.04829783
214	0xbd2515b5	-0.040303905
215	0xbd637e7c	-0.055540547
216	0xbcd4c2b7	-0.025971754
217	0x3d267dce	0.04064732
218	0x3b967cba	0.0045925053
219	0x3d095c43	0.033535253
220	0xbd6faaa2	-0.058512338
221	0xbd61ac08	-0.055095702
222	0x3d7de851	0.061989132
223	0x3d681907	0.056664493
224	0x3d977fb0	0.07397401
225	0xbd883419	-0.06650562
226	0x3d1bb9f6	0.038019143
227	0xbd8d8f84	-0.06912139
228	0xbc5f55bb	-0.01363128
229	0x3b1936bd	0.0023378574
230	0x3cfaad3e	0.030600186
231	0xbcaad573	-0.020853734
232	0xbd49f405	-0.04930498
233	0xbd8be8ad	-0.06831489
234	0xbd036717	-0.032080736
235	0x3d650cab	0.055920284
236	0x3cb363d0	0.02189818
237	0x3d122dae	0.035688095
238	0xbd8f071f	-0.0698378
239	0xbd8bdd9f	-0.0682938
240	0x3db80de8	0.089870274
241	0x3d9ab7cd	0.075545885
242	0xbc22c4e1	-0.009934635
243	0x3d2892ea	0.041155733
244	0x3d8d0e93	0.068875454
245	0x3daef6a5	0.085431375
246	0xbd805db7	-0.06267875
247	0xbc84b27f	-0.016198395
248	0x3d2f39b7	0.04277965
249	0x3d8fcf09	0.07021911
250	0x3c6abda8	0.014327444
251	0x39f46e9f	0.00046621726
252	0x3ba2705e	0.004957243
253	0x3da2f3b3	0.07956638
254	0xbd7eb4aa	-0.062184013
255	0x3d5353d4	0.051593617

features.8.bias f4 [32]
0	0x3d8692bb	0.06570955
1	0xbcbfcd8f	-0.023413448
2	0xbd9e36f6	-0.07725327
3	0xbce2a62a	-0.027667124
4	0x3d62089c	0.05518399
5	0x3cbc9c1b	0.023023656
6	0x3d802aa7	0.06258135
7	0x3d13a281	0.036043648
8	0xbda098b5	-0.078416266
9	0xbda0a0a9	-0.078431435
10	0xbc197813	-0.009367007
11	0xbd5cfcd9	-0.05395207
12	0xbd52f155	-0.051499683
13	0x3bf69ef5	0.0075262734
14	0xbc7e63c9	-0.01552672
15	0x3d7ff03b	0.06248496
16	0xbd3448ca	-0.04401473
17	0x3d108a7a	0.03528831
18	0xbd20de5a	-0.03927455
19	0xbd23fb7a	-0.04003475
20	0x3d8efb73	0.06981554
21	0x3c1fde26	0.009757554
22	0x3da0375b	0.07823058
23	0xbd866d29	-0.065637894
24	0xbce742a4	-0.028230019
25	0xbd89e400	-0.06732941
26	0x3d7fd4e5	0.06245889
27	0x3d1fac1c	0.038982496
28	0x3b9edead	0.0048483224
29	0x3d999871	0.07499779
30	0xbd5f0d22	-0.054455884
31	0xbd6a3935	-0.057183463

features.9.weight f4 [32]
0	0x3f85e7e7	1.0461396
1	0x3f87f354	1.0621133
2	0x3f820e4b	1.0160612
3	0x3f81cfcf	1.0141543
4	0x3f84db4b	1.0379423
5	0x3f7f91e7	0.99832004
6	0x3f84b91b	1.036899
7	0x3f83f19b	1.0308107
8	0x3f83c981	1.0295869
9	0x3f825ca3	1.018452
10	0x3f8146e2	1.0099757
11	0x3f831791	1.0241567
12	0x3f804266	1.0020263
13	0x3f862b92	1.0482047
14	0x3f824785	1.0178076
15	0x3f859c4b	1.0438322
16	0x3f832a76	1.0247333
17	0x3f82facf	1.0232791
18	0x3f83bdc2	1.0292284
19	0x3f84b0b1	1.0366422
20	0x3f84d773	1.037825
21	0x3f836f94	1.0268426
22	0x3f830315	1.0235316
23	0x3f82bfb5	1.0214754
24	0x3f82f9cb	1.0232481
25	0x3f831aa9	1.0242511
26	0x3f828e2a	1.0199635
27	0x3f860325	1.046971
28	0x3f85425f	1.041088
29	0x3f824426	1.0177047
30	0x3f84d652	1.0377905
31	0x3f82000f	1.0156268

features.9.bias f4 [32]
0	0x3d152821	0.036415223
1	0x3d3d2f28	0.04618755
2	0x3cdca5d4	0.026934542
3	0xbcf24497	-0.029573722
4	0x3d3eb75d	0.046561588
5	0xbb7a7cc6	-0.0038221343
6	0xbc1000bf	-0.00878924
7	0x3c0550ee	0.008136971
8	0x3a14982b	0.0005668427
9	0x3c50bd76	0.0127404835
10	0xbb9f3f79	-0.0048598615
11	0xbbfc9c4d	-0.007709062
12	0xbbb4735e	-0.005506917
13	0x3d2092b6	0.039202414
14	0xbcfec409	-0.031099336
15	0x3d248520	0.04016602
16	0x3b0a2ca6	0.0021083741
17	0xbcb80da3	-0.02246744
18	0x3d15cc7c	0.036571965
19	0x3d010527	0.031499054
20	0x3d28a194	0.041169718
21	0x3d05e4d7	0.03268894
22	0x3d1936da	0.037405826
23	0x3c7fb2b5	0.015606572
24	0x3cbc3dfe	0.022978779
25	0x3cab82c3	0.020936375
26	0xbc9d3dda	-0.019194532
27	0x3d650163	0.055909526
28	0x3d371df2	0.044706292
29	0x3cfd41d8	0.030915186
30	0x3d49a328	0.049227864
31	0xbab45873	-0.001375927

features.9.running_mean f4 [32]
0	0x3e0f0d19	0.1396984
1	0x3c7c37b2	0.015394138
2	0xbc9dfff8	-0.019287094
3	0x3dcf18f7	0.101121835
4	0x3cd74cbd	0.026281709
5	0xbe345ad5	-0.17612775
6	0x3df5eb76	0.12007801
7	0x3d65d703	0.056113254
8	0x39d4b354	0.000405694
9	0xbd065232	-0.03279323
10	0x3db6b786	0.08921723
11	0x3d860cbe	0.06545399
12	0xbc1f18ea	-0.00971053
13	0x3d175f86	0.036956333
14	0x3dbcbfc5	0.09216265
15	0x3c4d5219	0.012531781
16	0x3d47be40	0.04876542
17	0x3d28882b	0.041145485
18	0xbd9873b6	-0.07443945
19	0xbd3f495d	-0.046700824
20	0x3c3b13b6	0.011418274
21	0x3ce5970d	0.028026128
22	0x3e171891	0.14755465
23	0xbdb91744	-0.09037641
24	0xbd4d6dec	-0.050153658
25	0x3c1e86bb	0.009675677
26	0x3dcda01b	0.10040303
27	0x3d33b7c6	0.043876432
28	0x3d30279a	0.043006517
29	0x3e26693a	0.16251078
30	0xbd9581a4	-0.073001176
31	0xbd13d1ff	-0.03608894

features.9.running_var f4 [32]
0	0x3d010e90	0.03150803
1	0x3cdcb2b6	0.026940685
2	0x3c829ecf	0.015944866
3	0x3ccad324	0.024758883
4	0x3cdcf807	0.026973737
5	0x3db010f2	0.08596982
6	0x3cd6f2b2	0.026238773
7	0x3ce81639	0.02833091
8	0x3ceb920d	0.028756166
9	0x3d0db537	0.034596648
10	0x3d31a83b	0.043373328
11	0x3cf074d5	0.029352585
12	0x3d05aba1	0.03263438
13	0x3cead1c4	0.028664477
14	0x3cb07a23	0.021542614
15	0x3cd3e9df	0.025868354
16	0x3d142b5d	0.036174167
17	0x3d3953b2	0.045245834
18	0x3d553f48	0.052062303
19	0x3cb80b57	0.022466345
20	0x3cf9e2b5	0.03050361
21	0x3d18e414	0.037326887
22	0x3ce68b8e	0.028142717
23	0x3cc50e33	0.024054622
24	0x3cd8daa9	0.026471453
25	0x3c9f11c4	0.019417651
26	0x3d1866ef	0.03720754
27	0x3cbda780	0.02315116
28	0x3ce0768d	0.02740028
29	0x3cc7eb57	0.024404211
30	0x3d2e09a8	0.042489678
31	0x3cd85a6c	0.026410304

features.12.weight f4 [32, 32, 3]
0	0x3d91c0e3	0.07116868
1	0xbd61e3dc	-0.055148944
2	0x3d3971d4	0.04527457
3	0x3bf2ccc1	0.0074096625
4	0x3c1810b6	0.009281328
5	0xbda53b74	-0.080679804
6	0xbd67c704	-0.05658628
7	0x3d9bcfc7	0.0760799
8	0x3d19c5ed	0.037542272
9	0xbc879cb3	-0.016554212
10	0x3d19d92c	0.037560627
11	0xbd242003	-0.04006959
12	0x3b8d64a8	0.0043149777
13	0x3cc28230	0.023743719
14	0x3d366db9	0.044538233
15	0x3da03977	0.078234605
16	0x3da05bfd	0.07830045
17	0xbd25e5db	-0.04050241
18	0x3c21d281	0.009876848
19	0xbdb3c7cd	-0.08778343
20	0xbc580d2f	-0.013186737
21	0x3bc52a29	0.006016989
22	0xbd8f84df	-0.07007765
23	0x3dbac415	0.09119431
24	0xbd53617a	-0.051606633
25	0xbdc36324	-0.09540394
26	0xbd4c35e1	-0.04985607
27	0xbd15fc9b	-0.036617856
28	0xbdbe95ea	-0.093059376
29	0x3d811827	0.06303435
30	0x3b38f97a	0.0028224871
31	0xbd9606aa	-0.0732549
32	0xbc357f74	-0.0110777505
33	0xbd93261e	-0.07185005
34	0x3d263617	0.040578928
35	0xbc3766e6	-0.0111939665
36	0xbd076ef9	-0.033064816
37	0xbcbed3d6	-0.02329437
38	0xbd9b864f	-0.07593977
39	0x3d10ddbc	0.035367712
40	0xbdb46258	-0.0880782
41	0xbc4a0117	-0.012329361
42	0x3dcc3836	0.09971659
43	0x3d082d2b	0.0332462
44	0xbd93227a	-0.0718431
45	0x3ddfc65a	0.109265044
46	0xbd59f0fb	-0.053208333
47	0xbd47960e	-0.048727088
48	0x3d993591	0.0748092
49	0xbd636f18	-0.05552587
50	0x3afc45b1	0.0019246844
51	0x3d6d7877	0.057976212
52	0x3d95d6f6	0.07316391
53	0xbd78715b	-0.06065498
54	0x3d9bbdde	0.07604574
55	0x3d81632f	0.06317746
56	0xbd1765df	-0.036962386
57	0xbc956077	-0.018234475
58	0xbd5dd174	-0.05415483
59	0xbd97670e	-0.07392703
60	0x3dc6a9a0	0.09700322
61	0x3d9e1413	0.077186726
62	0x3c754368	0.014969684
63	0x3d7fa7ea	0.062415995
64	0xbdf3de29	-0.11907608
65	0xbc697f90	-0.014251605
66	0xbd373b39	-0.044734214
67	0x3d319033	0.04335041
68	0x3bd7ef1d	0.006589784
69	0xbdb1c0cb	-0.086793505
70	0x3b4756c2	0.0030416702
71	0x3cf82937	0.03029309
72	0xbd074c57	-0.033031788
73	0xbd0fb17d	-0.035081375
74	0xbda7a63b	-0.08186003
75	0x3db4df05	0.088316
76	0xbde2f4af	-0.11081826
77	0xbd9c0405	-0.07617954
78	0xbd989a58	-0.07451314
79	0xbd469826	-0.048484944
80	0xbd90d55f	-0.07071947
81	0x3c39f583	0.011350038
82	0x3d98cb27	0.07460623
83	0xbc7835cf	-0.015149548
84	0x3c963e7b	0.01834034
85	0x3d9d68ba	0.07685991
86	0xbdf7fa2a	-0.12108262
87	0xbb8df9f6	-0.004332776
88	0x3d142073	0.03616376
89	0x3c795136	0.015217116
90	0xbd7e85e4	-0.062139407
91	0xbd07833a	-0.03308413
92	0xbd8c0922	-0.068376794
93	0x3dec125e	0.11526941
94	0xbd0f7429	-0.03502289
95	0xbcf852c3	-0.030312901
96	0xbc721072	-0.014774429
97	0xbdc33395	-0.09531323
98	0xbdcae907	-0.09907728
99	0xbdca4eaf	-0.09878289
100	0xbb9562f4	-0.0045589153
101	0xbd9c227f	-0.07623767
102	0xbda56d99	-0.08077545
103	0xbd765b83	-0.060145866
104	0xbc993800	-0.01870346
105	0xbcb4da80	-0.022076845
106	0xbd942c28	-0.07234985
107	0x3cab0ebe	0.020881053
108	0xb854645a	-5.06382e-05
109	0xbd848a83	-0.064717315
110	0x3d6450c7	0.055741098
111	0xbc4f380c	-0.01264764
112	0xbc85b80f	-0.016323118
113	0x3d73d251	0.059526745
114	0xbd1602c7	-0.036623742
115	0x3d5bace8	0.053631693
116	0xbd50634d	-0.05087595
117	0xbd6b63f5	-0.057468373
118	0x3cadbe67	0.021208955
119	0xbd5e04a4	-0.054203644
120	0x3d4777c2	0.048698194
121	0xbdb28676	-0.08717053
122	0xbc8628da	-0.016376901
123	0x3de828d7	0.113359146
124	0x3c13afed	0.009014112
125	0x3d8fd4ee	0.07023035
126	0x3dd67bde	0.104728445
127	0xbc955c46	-0.018232476
128	0xbc983be6	-0.01858325
129	0xbd305d36	-0.043057643
130	0xbda3ec83	-0.080040954
131	0xbcbf6565	-0.023363778
132	0x3ca75f04	0.02043105
133	0x3d76f440	0.06029153
134	0x3d646923	0.05576433
135	0x3dbe190a	0.092821196
136	0xbd871456	-0.06595676
137	0xbda1ee18	-0.07906741
138	0xbddd2c23	-0.10799434
139	0x3d9a42b7	0.07532256
140	0x3d7d6a69	0.06186906
141	0xbd3a4130	-0.045472324
142	0x3d8b6c5a	0.06807776
143	0xbdc27de5	-0.09496669
144	0xbc457ba1	-0.012053401
145	0x3c1f8642	0.009736599
146	0x3d86931d	0.065710284
147	0x3dbe151b	0.09281369
148	0xbd33b54c	-0.04387407
149	0x3df4c9c3	0.119525455
150	0x3da0d5c3	0.07853272
151	0x3c18f6a7	0.00933615
152	0xbd9ed830	-0.07756078
153	0x3cd5cc8a	0.026098508
154	0x3cb23216	0.021752398
155	0xbce6802b	-0.028137287
156	0x3d94fe2b	0.07275041
157	0xbdf32d89	-0.118739195
158	0xbda6c804	-0.08143619
159	0xbd617c80	-0.055050373
160	0xbd4e9e25	-0.050443787
161	0x3d5d68aa	0.054054894
162	0xbc1b5c14	-0.009482402
163	0x3b87cb62	0.004144118
164	0xbdc81613	-0.09769835
165	0xbd6219f7	-0.055200543
166	0x3da0223a	0.07819028
167	0xbc9f38a0	-0.01943618
168	0x3d298f25	0.04139628
169	0xbd92a083	-0.071595214
170	0xbd5c4dcd	-0.053785134
171	0x3d7d80f3	0.061890554
172	0x3da2e96e	0.079546794
173	0x3c95f75d	0.018306429
174	0xbdad8ef5	-0.084745325
175	0xbd82ce8f	-0.06387054
176	0xbd1be51b	-0.03806029
177	0x3d08322e	0.03325098
178	0xbdf6457c	-0.12024972
179	0xbdc50f01	-0.096220024
180	0xbdf29330	-0.1184448
181	0xbdcc5847	-0.09977775
182	0x3d560cd4	0.052258328
183	0xbd25b5da	-0.04045663
184	0xbd01354b	-0.031544965
185	0x3af3fa45	0.0018614015
186	0xbcee2069	-0.029068189
187	0xbd33ca4f	-0.04389411
188	0xbc80b17e	-0.015709635
189	0xbd31b3b4	-0.04338427
190	0x3d8f110e	0.06985675
191	0x3b616873	0.0034394532
192	0x3d5eec75	0.05442472
193	0x3d47e794	0.048804834
194	0x3dfbd1c1	0.12295867
195	0x3d995eed	0.07488809
196	0xbd0f36de	-0.034964435
197	0x3ab47d83	0.0013770316
198	0x3c752509	0.014962443
199	0xbd588e1b	-0.052869897
200	0xbdb75a33	-0.08952751
201	0x3dacc442	0.08435871
202	0x3d8dc462	0.06922223
203	0xbd8b087b	-0.06788727
204	0x3d23b793	0.039969992
205	0x3dc0333e	0.09384774
206	0xbd434f2e	-0.047682934
207	0xbcfc8d41	-0.030829074
208	0xbd9ea62d	-0.07746539
209	0xbd81304f	-0.06308042
210	0x3d8c83ff	0.06861114
211	0x3ccaa6f9	0.024737822
212	0xbd866308	-0.065618575
213	0xbc0f32af	-0.008740111
214	0xbd542157	-0.051789608
215	0xbc6a881f	-0.01431468
216	0xbd2051c5	-0.03914048
217	0x3c55945d	0.013035861
218	0xbad50e0e	-0.0016254799
219	0xbdb6359d	-0.08896945
220	0x3d2b324b	0.04179601
221	0x3bd668bb	0.0065432466
222	0xbd86a228	-0.065738976
223	0xbd934f2b	-0.071928345
224	0xbc1d7074	-0.00960933
225	0x3d4aa00d	0.049469043
226	0xbda98f21	-0.08279253
227	0xbbb61954	-0.0055572186
228	0xbd442f8a	-0.0478969
229	0xbd8ff30e	-0.07028781
230	0x3dade17a	0.08490272
231	0xbd8a6a53	-0.06758561
232	0xbdfae72b	-0.12251123
233	0xbd41f1b0	-0.04734963
234	0xbd6f38a8	-0.05840364
235	0x3d58fc70	0.05297512
236	0xbcee7ef5	-0.029113272
237	0xbd3c09f3	-0.045907926
238	0xbcd43541	-0.0259043
239	0xbbc0588d	-0.005869931
240	0x3db0083b	0.0859532
241	0x3bb7db6c	0.005610874
242	0xbdbccc37	-0.092186384
243	0xbc954657	-0.018222017
244	0x3dce34f3	0.10068693
245	0xbdbef1f4	-0.09323493
246	0xbd046f09	-0.032332454
247	0x3dae6510	0.0851537
248	0xbca7b859	-0.020473646
249	0x3d415631	0.04720134
250	0xbdb3a893	-0.08772387
251	0x3d64abe1	0.05582798
252	0x3da4878f	0.08033668
253	0xbbbece8a	-0.005822961
254	0xbdc81c95	-0.097710766
255	0xbc8c3c33	-0.017118549

features.12.bias f4 [32]
0	0xbde472a9	-0.11154682
1	0x3c0691a7	0.008213437
2	0x3d551366	0.052020453
3	0xbded85a2	-0.11597754
4	0x3d962171	0.07330597
5	0x3d23faaa	0.040033974
6	0x3dc7d4a1	0.097573526
7	0xbd5540c6	-0.052063726
8	0x3d749698	0.05971393
9	0x3d74eff4	0.05979915
10	0xbdec0ba8	-0.11525661
11	0xbd7ee86a	-0.062233366
12	0xbd9eeab3	-0.07759609
13	0xbce8afe4	-0.028404184
14	0xbd3c75c0	-0.046010733
15	0xbd6fc469	-0.05853692
16	0x3cefd642	0.02927697
17	0x3d6b2982	0.05741263
18	0x3dc2cc6a	0.09511645
19	0x3d70f8c8	0.058831006
20	0x3d35b951	0.044366185
21	0x3c03be69	0.008041003
22	0x3cc163bd	0.02360713
23	0x3d81dc67	0.063408665
24	0x3d846391	0.06464303
25	0xbdb85d6f	-0.09002196
26	0x3d801529	0.06254036
27	0xbd65afa0	-0.056075692
28	0xba354cdc	-0.0006916055
29	0xbd809b3c	-0.062796086
30	0x3c9a5462	0.018839065
31	0x3a6d5a29	0.00090542674

classifier.1.weight f4 [32, 32]
0	0x3df534e5	0.119729795
1	0xbdbd3a3a	-0.092396215
2	0x3ded7b06	0.115957305
3	0xbe2b2db2	-0.1671665
4	0x3e035952	0.12827042
5	0x3dfce026	0.123474404
6	0xbe22ea00	-0.15909576
7	0xbe118990	-0.14212632
8	0x3d06385b	0.03276859
9	0x3da95730	0.08268583
10	0x3e2f95c1	0.1714697
11	0x3db49912	0.08818258
12	0xbe01529b	-0.12629168
13	0x3d6652df	0.056231376
14	0xbe281d3f	-0.16417406
15	0xbdba3bb7	-0.09093421
16	0x3cd305d2	0.025759611
17	0x3d4b0c91	0.04957253
18	0xbe211b87	-0.15733157
19	0xbd31a1ff	-0.043367382
20	0xbe144d6b	-0.14482658
21	0xbe21bd20	-0.15794802
22	0xbb393dce	-0.0028265598
23	0xbc3de9af	-0.011591359
24	0x3d13ac0e	0.036052756
25	0x3de484dc	0.111581534
26	0xbe31f378	-0.17378032
27	0xbdd0ba37	-0.10191768
28	0xbd6d7279	-0.057970498
29	0xbe0a594d	-0.13510628
30	0x3e236091	0.15954806
31	0x3e291345	0.16511257
32	0xbe3050a2	-0.17218259
33	0xbe1d0fdc	-0.15338081
34	0xbdc3025c	-0.095219344
35	0xbd584f61	-0.052810077
36	0x3c5f09ea	0.013613204
37	0xbe30f7ea	-0.17282072
38	0xbcc22db5	-0.023703435
39	0xbe11ddcd	-0.14244767
40	0x3e28d783	0.16488461
41	0xbdd7ccfc	-0.105371445
42	0x3cf63b7d	0.030057663
43	0x3e3389e6	0.17533073
44	0xbe0f9bea	-0.1402432
45	0x3bfd2341	0.00772515
46	0x3e220d14	0.15825301
47	0x3b02c8e6	0.001995617
48	0xbe057b8a	-0.13035408
49	0xbda5a918	-0.08088893
50	0xbe1beb8a	-0.1522657
51	0xbdba2601	-0.0908928
52	0xbdeb9b23	-0.11504199
53	0x3da6fab2	0.08153285
54	0x3dcd22c7	0.10016399
55	0xbd2b8665	-0.041876215
56	0x3e0d6124	0.13806587
57	0xbddd2e0a	-0.10799797
58	0x3d8236f0	0.06358135
59	0xbe2056d4	-0.15658122
60	0x3dd310e4	0.10305956
61	0xbe338398	-0.17530668
62	0x3dd3b866	0.103379056
63	0xbc3e0529	-0.01159791
64	0xbe2d4a21	-0.16922809
65	0x3e3cd4fa	0.18440619
66	0x3c360036	0.011108449
67	0xbe00bd44	-0.12572199
68	0x3dad802a	0.08471711
69	0xbde45067	-0.11148148
70	0xbdd8fdfd	-0.105953194
71	0xbc180296	-0.00927796
72	0xbcb0f837	-0.021602733
73	0xbde5aab7	-0.11214202
74	0x3e08c496	0.13356242
75	0x3d530aad	0.051523853
76	0xbdd93807	-0.106063895
77	0x3e076395	0.13221581
78	0x3dfca955	0.12336985
79	0x3e39e6a6	0.18154392
80	0xbcf1c77f	-0.029514072
81	0xbd00e6fa	-0.031470276
82	0x3d0d6029	0.034515534
83	0xbb6c31bf	-0.0036040393
84	0x3dca6dd4	0.09884229
85	0xbd8f1473	-0.06986322
86	0x3d93e38f	0.07221138
87	0x3e255b0b	0.16148011
88	0x3d81d453	0.06339326
89	0x3df005d9	0.11719865
90	0xbde5df90	-0.11224282
91	0x3d8b62c0	0.068059444
92	0xbe0a5c03	-0.13511662
93	0xbb88fbeb	-0.0041804216
94	0x39b585e5	0.0003462277
95	0x3e484eec	0.19561356
96	0xbd69db64	-0.057093993
97	0x3e33b36c	0.17548913
98	0x3dc7321e	0.09726356
99	0x3c10026b	0.008789639
100	0x3e2efba4	0.17088181
101	0x3e1f542f	0.15559457
102	0xbd98904a	-0.07449396
103	0xbe201d3a	-0.15636149
104	0x3d6dfc95	0.05810221
105	0x3deea51c	0.11652586
106	0x3d7d4abd	0.061838854
107	0x3e2aff61	0.16698982
108	0xbcedeb62	-0.029042903
109	0x3daa50fb	0.08316227
110	0xbe0ff3a6	-0.14057788
111	0x3e367942	0.17819694
112	0xbdc29ce0	-0.09502578
113	0x3b5b7663	0.0033487312
114	0xbdce107a	-0.100617364
115	0x3e110bc8	0.1416465
116	0xbdbc4dc8	-0.09194523
117	0xbe0d9c1f	-0.13829087
118	0xbdcbd541	-0.09952784
119	0x3cc9882b	0.024601063
120	0xbdd6fcb1	-0.10497416
121	0xbc9c7ebd	-0.019103402
122	0xbbca70e2	-0.0061780075
123	0x3e261393	0.16218404
124	0x3d868b86	0.06569581
125	0x3da6933c	0.081335515
126	0xbd469b7f	-0.048488136
127	0x3e13538c	0.1438734
128	0x3e07bbc3	0.13255219
129	0x3c8d0e0d	0.017218614
130	0x3cbaa496	0.022783559
131	0xbc24e318	-0.010063909
132	0x3ca2bddf	0.019865928
133	0xbdf137d6	-0.11778228
134	0x3dc7420d	0.09729395
135	0x3e406f61	0.18792488
136	0x3dd819b2	0.10551776
137	0x3de06bed	0.10958085
138	0x3e4994e8	0.1968571
139	0x3e0c1782	0.13680843
140	0x3d946749	0.072462626
141	0x3e0a8031	0.13525464
142	0x3dfc525f	0.123203985
143	0x3d7b2c06	0.06132128
144	0xbcd2a2dd	-0.025712425
145	0xbdc352e3	-0.09537294
146	0xbd0e5144	-0.03474547
147	0x3d8ea734	0.06965485
148	0xbdf62d3c	-0.120203465
149	0xbe19828c	-0.14991206
150	0xbb1a674f	-0.0023560112
151	0x3d497a6c	0.049189016
152	0x3e108ec0	0.14116955
153	0x3e25067a	0.16115752
154	0xbdeb5195	-0.1149017
155	0x3cd4b642	0.025965814
156	0xbe0a8ed3	-0.13531046
157	0x3d134a0b	0.035959285
158	0xbdfe76bd	-0.12424991
159	0xbe09f035	-0.13470538
160	0xbc48bf40	-0.012252629
161	0x3df0baf1	0.11754406
162	0xbe4bf9c1	-0.19919492
163	0xbe2ebe0e	-0.17064688
164	0x3cd350b2	0.025795314
165	0x3e17573a	0.14779368
166	0xbd84baeb	-0.06480964
167	0x3e0de289	0.13855948
168	0x3e13e7d5	0.14443906
169	0xbdb568d4	-0.08857885
170	0x3ce5ebf7	0.028066618
171	0x3dce8ad5	0.10085074
172	0xbe488a43	-0.19583993
173	0x3daace04	0.083400756
174	0x3d6c13c8	0.057636052
175	0x3c2aa1d7	0.010414562
176	0xbe477bd6	-0.19480833
177	0xbd0fc31b	-0.035098176
178	0xbe16a1da	-0.14710179
179	0xbc334c7f	-0.010943531
180	0xbba56f6e	-0.005048684
181	0xbde8024f	-0.11328565
182	0x3e00751c	0.12544674
183	0xbe05b1c8	-0.130561
184	0x3dbbd4e3	0.09171464
185	0x3dbacbe7	0.091209225
186	0x3e191142	0.1494799
187	0x3d2bdcc5	0.04195859
188	0x3dcf658e	0.10126792
189	0xbdaa36db	-0.08311244
190	0x3d7fa60e	0.06241422
191	0x3e1f276d	0.15542383
192	0xbe36a428	-0.17836058
193	0xbe00c496	-0.12574992
194	0x3d3b3d4c	0.045712754
195	0xbd30729a	-0.043078043
196	0xbcfe1019	-0.031013535
197	0xbde05554	-0.10953775
198	0xbba985bc	-0.005173413
199	0xbd87008d	-0.06591902
200	0x3e24bf40	0.16088581
201	0x3ddb07b7	0.10694831
202	0x3d32f5cb	0.043691438
203	0x3d90d9ef	0.070728175
204	0xbdae91a3	-0.08523872
205	0xbd3a48d7	-0.04547962
206	0x3dcd1e03	0.1001549
207	0x3e1c0cc4	0.15239245
208	0xbd1f0e9b	-0.03883229
209	0xbe216828	-0.15762389
210	0xbbe68d38	-0.0070358776
211	0x3dd545d5	0.1041371
212	0x3bc16743	0.0059022023
213	0xbe31c5a6	-0.17360553
214	0x3c4f3579	0.012647026
215	0xbdd2f419	-0.10300464
216	0x3d80a5d6	0.06281631
217	0x3e08be81	0.13353921
218	0x3dc647a1	0.09681631
219	0xbe156caa	-0.14592233
220	0x3d0e1d95	0.03469618
221	0xbc53a1b4	-0.012916971
222	0x3d0edc8c	0.0348783
223	0xbdbb1d81	-0.09136487
224	0xbe213aa6	-0.15745029
225	0xbd9e7a32	-0.07738151
226	0xbc18351f	-0.009290009
227	0x3dc744fd	0.09729955
228	0xbe120595	-0.14259942
229	0x3dda43f5	0.10657493
230	0x3e4927c4	0.19644076
231	0xbe2e07e9	-0.16995205
232	0xbe01b953	-0.12668352
233	0x3d141ecf	0.036162194
234	0xbe104c32	-0.14091566
235	0x3d27ad1a	0.040936567
236	0xbe41ad0f	-0.18913673
237	0xbabb05d0	-0.00142687
238	0x3e40a159	0.18811549
239	0x3e1229f5	0.14273818
240	0x3cc13eb8	0.023589477
241	0x3dc59a73	0.096485995
242	0x3e37d4e8	0.17952311
243	0xbe08e103	-0.13367085
244	0x3e14b55e	0.14522311
245	0x3da61900	0.08110237
246	0xbe2bcb8f	-0.1677687
247	0x3da6837c	0.081305474
248	0x3ac60af6	0.0015109468
249	0xbe280ec6	-0.16411886
250	0xbdefc247	-0.11706977
251	0x3c85d70d	0.016337896
252	0x3d4d956f	0.05019134
253	0x3d495a2b	0.049158257
254	0x3e112602	0.14174655
255	0x3e14d410	0.1453402

classifier.1.bias f4 [32]
0	0xbdb2f73b	-0.08738562
1	0x3dbd80ad	0.092530586
2	0x3e14b7bf	0.14523219
3	0x3c1824fa	0.00928616
4	0x3de61c3f	0.11235856
5	0xbe30b5e0	-0.1725688
6	0x3d887ca2	0.06664397
7	0xbc8fde8c	-0.017562173
8	0x3e1e438a	0.15455452
9	0x3d82ace4	0.063806325
10	0x3e1e738a	0.15473762
11	0xbdca640f	-0.09882366
12	0x3ac6df5b	0.0015172766
13	0x3de90783	0.11378386
14	0xbe02e854	-0.12783939
15	0xbd84e6ee	-0.06489359
16	0xbdd07849	-0.101791926
17	0xbdbb2787	-0.091383986
18	0x3da059d6	0.07829635
19	0xbd5aad8c	-0.053388163
20	0x3e1b6b18	0.15177572
21	0x3c8a71f2	0.016900036
22	0x3dbf2bfd	0.09334562
23	0xbc1c38b8	-0.009535007
24	0xbe148cef	-0.14506887
25	0xbd4a05ba	-0.049321868
26	0xbdef44b7	-0.11683028
27	0xbdb20860	-0.08693004
28	0x3debc84f	0.11512815
29	0xbdf05571	-0.11735047
30	0xbdc1d0e4	-0.09463671
31	0xbda2f5ee	-0.079570636
